Starting the program...
Loading data...
Loaded 484 imagesTr.
Loading data...
Loaded 484 labelsTr.
Splitting data into training and validation sets...
Creating U-Net model...
U-Net model created.
Model: "model"
_________________________________________________________________
Layer (type)                 Output Shape              Param #   
=================================================================
input_1 (InputLayer)         [(None, 240, 240, 155, 1) 0         
_________________________________________________________________
conv3d (Conv3D)              (None, 240, 240, 155, 16) 448       
_________________________________________________________________
max_pooling3d (MaxPooling3D) (None, 120, 120, 77, 16)  0         
_________________________________________________________________
conv3d_1 (Conv3D)            (None, 120, 120, 77, 32)  13856     
_________________________________________________________________
max_pooling3d_1 (MaxPooling3 (None, 60, 60, 38, 32)    0         
_________________________________________________________________
conv3d_2 (Conv3D)            (None, 60, 60, 38, 64)    55360     
_________________________________________________________________
up_sampling3d (UpSampling3D) (None, 120, 120, 76, 64)  0         
_________________________________________________________________
conv3d_3 (Conv3D)            (None, 120, 120, 76, 32)  55328     
_________________________________________________________________
up_sampling3d_1 (UpSampling3 (None, 240, 240, 152, 32) 0         
_________________________________________________________________
conv3d_4 (Conv3D)            (None, 240, 240, 152, 16) 13840     
_________________________________________________________________
conv3d_5 (Conv3D)            (None, 240, 240, 152, 1)  17        
=================================================================
Total params: 138,849
Trainable params: 138,849
Non-trainable params: 0
_________________________________________________________________
Starting training...
Epoch 1/50
  1/194 [..............................] - ETA: 1:17:12 - loss: 0.6936 - accuracy: 0.7017
…
